MLP/lightning_logs/version_1/checkpoints/epoch=4-step=14060.ckpt (torch, 11671 bytes, 15 tensors)

model.0.weight f4 [8, 4]
0	0xbdb1bf21	-0.08679033
1	0x3f36efec	0.7145984
2	0xbea4bbae	-0.32174438
3	0x3e941586	0.2892267
4	0xbf17bf99	-0.5927673
5	0x3f1ee193	0.6206295
6	0xbd2035d7	-0.039113846
7	0xbdf0aee0	-0.11752105
8	0x3e8c13da	0.27358896
9	0x3dfda33d	0.12384651
10	0x3f061079	0.52368885
11	0xbe13566a	-0.14388433
12	0xbd9ce8ea	-0.07661612
13	0x3d9677bb	0.073470555
14	0x3c21dee0	0.009879798
15	0xbf0aafa6	-0.5417427
16	0x3f145ac4	0.57951
17	0xbf155280	-0.5832901
18	0xbe915bf6	-0.28390473
19	0x3ea80aaf	0.3282065
20	0xbf1f9834	-0.6234162
21	0x3eef9f9f	0.4680147
22	0xbd68282b	-0.056678932
23	0x3c36a491	0.011147634
24	0xbf88606b	-1.0654424
25	0x3ebbcdf8	0.3668058
26	0xbe6cc13c	-0.23120588
27	0x3e3e92d3	0.18610696
28	0xbe73f506	-0.23823938
29	0xbef5c26e	-0.479999
30	0x3f07c089	0.5302816
31	0xbf1a14ab	-0.60187787

model.0.bias f4 [8]
0	0x3f790c5b	0.9728448
1	0x3f0778ba	0.5291859
2	0xbe6025f0	-0.21889472
3	0x3e74be53	0.23900728
4	0xbcc77f1b	-0.0243526
5	0x3f5dfd0b	0.8671424
6	0x3f1af35d	0.6052759
7	0x3ea30121	0.318368

model.2.weight f4 [4, 8]
0	0xbdaf00e6	-0.08545093
1	0xbe81a07c	-0.25317752
2	0x3c1bde27	0.009513414
3	0x3de16a8d	0.11006651
4	0x3db3519e	0.087558016
5	0xbe9cf20c	-0.30653417
6	0x3d4d590e	0.050133757
7	0xbe0b134a	-0.13581577
8	0x3f05404a	0.5205122
9	0x3f0bb55c	0.5457361
10	0xbe8ce5e7	-0.27519152
11	0x3e5a6633	0.21328048
12	0xbf33aff8	-0.7019038
13	0x3f56411a	0.8369309
14	0x3f31b5c2	0.69417965
15	0x3e9cc784	0.30620968
16	0x3da4007c	0.08007905
17	0xbd1b2e84	-0.037886158
18	0x3e7ad635	0.24495776
19	0xbe90dd48	-0.28293824
20	0xbc1b3d58	-0.009475075
21	0xbe8bcd3e	-0.27305025
22	0x3ddf454c	0.10901889
23	0xbdf95c02	-0.12175752
24	0x3eb8f96a	0.36127788
25	0x3f2959ba	0.66152537
26	0x3ea63fef	0.32470652
27	0x3d8f0dbd	0.06985042
28	0xbf30e28c	-0.69095683
29	0x3e9940a8	0.2993214
30	0x3f5d93cc	0.86553645
31	0x3e65a951	0.2242787

model.2.bias f4 [4]
0	0x3d97aded	0.074062206
1	0x3e3ee163	0.18640666
2	0xbec3cc2d	-0.3824171
3	0x3e0e314b	0.13885991

model.4.weight f4 [1, 4]
0	0xbe4319d5	-0.19052823
1	0x3f69231c	0.910692
2	0x3e16e45f	0.14735554
3	0x3f849919	1.0359222

exp_avg f4 [8, 4]
0	0xbd24da48	-0.04024723
1	0xbd3c4d28	-0.04597202
2	0xbda10272	-0.078617945
3	0x3d894186	0.06701951
4	0xbd3f1d6d	-0.046658922
5	0xbd4589da	-0.04822717
6	0xbdaefa27	-0.085438065
7	0x3d3e8865	0.046516795
8	0xbba611a9	-0.005068023
9	0xbb951b7f	-0.004550397
10	0xbb5ee559	-0.0034011214
11	0xba5c53b5	-0.00084048073
12	0xbc2dda54	-0.0106111355
13	0xbc540c07	-0.012942321
14	0xbc7b6f02	-0.015346291
15	0xbac453db	-0.0014978604
16	0xbd0faf1b	-0.035079103
17	0xba2f23a6	-0.0006681032
18	0x3d9c99be	0.076465115
19	0xbdc136ec	-0.09434304
20	0xbd69cf58	-0.057082504
21	0xbd8c1a91	-0.06841005
22	0xbdc083f7	-0.0940017
23	0x3d92c7d5	0.07167021
24	0xbd89a3f4	-0.06720725
25	0xbdb636d7	-0.088971786
26	0xbb527b60	-0.0032116994
27	0x3da438b9	0.080186315
28	0xbd2fbc1b	-0.042904
29	0xbd0962c9	-0.033541474
30	0xbc23d34e	-0.009999109
31	0x3bd89c16	0.006610404

exp_avg_sq f4 [8, 4]
0	0x3dff64cc	0.12470397
1	0x3d8c10b4	0.06839123
2	0x3d910eeb	0.070829235
3	0x3d934ce1	0.07192398
4	0x3e73ccea	0.23808637
5	0x3e157711	0.14596201
6	0x3e0e838e	0.13917372
7	0x3e02dba3	0.12779097
8	0x39ab679c	0.00032692857
9	0x391fcd07	0.000152398
10	0x39323dac	0.00016998377
11	0x392d380d	0.00016519446
12	0x3bdedaee	0.006801001
13	0x3b94f38a	0.0045456337
14	0x3b8ecb7a	0.0043577524
15	0x3b38028c	0.002807769
16	0x3e893d6a	0.26804668
17	0x3e2c7f4e	0.16845438
18	0x3e0e53f4	0.13899213
19	0x3e152809	0.14566053
20	0x3e5b56f1	0.21419884
21	0x3e10e403	0.1414948
22	0x3e068001	0.13134767
23	0x3e03ade2	0.128593
24	0x3d7bda34	0.06148739
25	0x3e191033	0.14947586
26	0x3dc642ae	0.09680687
27	0x3dc00bfd	0.093772866
28	0x3c50c6fb	0.012742753
29	0x3c80ee20	0.015738547
30	0x3c402460	0.0117274225
31	0x3c2475e9	0.010037878

exp_avg f4 [8]
0	0x3d0e1540	0.034688234
1	0x3d1a5767	0.03768101
2	0xbb0d44e9	-0.0021555966
3	0xbb729066	-0.0037012338
4	0xbdbcc599	-0.09217376
5	0x3d4f7557	0.050649013
6	0x3da6d393	0.08145823
7	0x3b79c83f	0.003811374

exp_avg_sq f4 [8]
0	0x3d90e347	0.070746
1	0x3e1016e6	0.14071235
2	0x39363339	0.00017375954
3	0x3b8c6691	0.004284688
4	0x3e14255f	0.14467381
5	0x3e03d476	0.12874016
6	0x3dc2abcc	0.09505424
7	0x3c346eeb	0.011012773

exp_avg f4 [4, 8]
0	0x00000004	6e-45
1	0x00000004	6e-45
2	0x00000004	6e-45
3	0x00000004	6e-45
4	0x00000004	6e-45
5	0x00000004	6e-45
6	0x00000004	6e-45
7	0x00000004	6e-45
8	0x3d58c3c3	0.052921068
9	0x3c49191e	0.012274055
10	0xbd0aef65	-0.03391971
11	0xba8648b2	-0.0010245054
12	0x3d40a195	0.047029097
13	0x3d3bcb13	0.045847964
14	0x3d7f812d	0.06237905
15	0x3d05bf6c	0.032653257
16	0x00000004	6e-45
17	0x00000004	6e-45
18	0x00000004	6e-45
19	0x00000004	6e-45
20	0x00000004	6e-45
21	0x00000004	6e-45
22	0x00000000	0.0
23	0x00000000	0.0
24	0x3d765612	0.060140677
25	0x3c648e1a	0.013949895
26	0xbd1dff10	-0.038573325
27	0xba99bbd2	-0.0011728948
28	0x3d5af34b	0.05345468
29	0x3d557436	0.05211278
30	0x3d913b01	0.07091332
31	0x3d1800ea	0.037110247

exp_avg_sq f4 [4, 8]
0	0x3181d8ac	3.779027e-09
1	0x2fabd220	3.1254022e-10
2	0x2fa84030	3.060463e-10
3	0x30a59c6f	1.2049791e-09
4	0x301f7a46	5.8017624e-10
5	0x3012728b	5.3277266e-10
6	0x2fbe79b7	3.4647282e-10
7	0x2ffe00b2	4.6202825e-10
8	0x3e3fce3c	0.18731016
9	0x3c605c60	0.013693899
10	0x3c961af0	0.018323392
11	0x3c8b885d	0.017032797
12	0x3ceeeb87	0.029165043
13	0x3d1a2ba8	0.03763929
14	0x3d210041	0.039306883
15	0x3d44c357	0.048037853
16	0x32a131c5	1.87655e-08
17	0x2f7f61dc	2.3226882e-10
18	0x31cdb9a3	5.9873897e-09
19	0x2d050028	7.560209e-12
20	0x31b82c7b	5.3601616e-09
21	0x30c420ee	1.4270236e-09
22	0x00000000	0.0
23	0x00000000	0.0
24	0x3e75ea54	0.2401517
25	0x3c8fd6c2	0.01755846
26	0x3cc04daf	0.023474542
27	0x3cb2cfa9	0.021827536
28	0x3d19212a	0.037385143
29	0x3d45a618	0.048254102
30	0x3d4e6af8	0.050394982
31	0x3d7c43d9	0.061588142

exp_avg f4 [4]
0	0x00000004	6e-45
1	0x3d2eca40	0.04267335
2	0x00000004	6e-45
3	0x3d469b71	0.048488084

exp_avg_sq f4 [4]
0	0x311a2daf	2.2435918e-09
1	0x3db987ba	0.09059091
2	0x31e1e940	6.5748793e-09
3	0x3deddb73	0.11614122

exp_avg f4 [1, 4]
0	0x80000004	-6e-45
1	0x3df8cff8	0.12149042
2	0x00000004	6e-45
3	0x3d931481	0.07181645

exp_avg_sq f4 [1, 4]
0	0x31b5d6e2	5.2922227e-09
1	0x3ea0d0ad	0.31409207
2	0x2882c472	1.4518094e-14
3	0x3e45e37d	0.19325061
