MLP/lightning_logs/version_0/checkpoints/epoch=4-step=14060.ckpt (torch, 11671 bytes, 18 tensors)

model.0.weight f4 [8, 4]
0.540533 0.3187088 -0.21468371 0.097894385 0.3301241 0.25002676 -0.15300581 -0.20894663
0.59098333 -0.5289951 -0.047729228 0.20649174 0.22287534 0.12121205 0.27033985 0.044217225
0.37333444 -0.3427779 -0.17967442 0.20874023 -0.5885085 -0.038429152 -0.32574534 0.11963766
-0.4095901 0.03375211 0.13987274 -0.20455292 -0.033313382 -0.49650118 0.25653866 -0.5013849
00000000: 5f60 0a3f cd2d a33e 0cd6 5bbe da7c c83d
00000010: 0706 a93e 8203 803e 8ead 1cbe 1bf6 55be
00000020: af4a 173f 396c 07bf b97f 43bd 9272 533e
00000030: 6f39 643e 063e f83d fc69 8a3e 1f1d 353d
00000040: b125 bf3e 9680 afbe 92fc 37be 00c0 553e
00000050: 7ea8 16bf e367 1dbd 18c8 a6be 9704 f53d
00000060: cbb5 d1be a73f 0a3d cd3a 0f3e 5276 51be
00000070: 9d73 08bd 6735 febe 0959 833e c35a 00bf

model.0.bias f4 [8]
0.42333478 0.06587673 -0.0805176 0.10690924 0.05065858 0.36286595 0.18924159 0.03123491
00000000: 56bf d83e 61ea 863d 69e6 a4bd 3bf3 da3d
00000010: 5f7f 4f3d 91c9 b93e 8cc8 413e 5be0 ff3c

model.2.weight f4 [4, 8]
-0.091457255 -0.1601957 0.3201488 0.03525561 0.25724292 -0.18752854 0.14660378 -0.09400916
0.24072342 -0.10465778 -0.412069 -0.09877045 -0.32876304 0.49272266 0.34055626 0.14733964
0.09631369 -0.02339733 0.26327658 -0.25882286 0.0076381206 -0.24829285 0.10901889 -0.12175752
0.05051705 -0.10965999 0.27867496 -0.29240942 0.09607911 -0.120670386 0.28568682 0.09261471
00000000: f14d bbbd 570a 24be 8bea a33e 3068 103d
00000010: 58b5 833e 7b07 40be 4d1f 163e e087 c0bd
00000020: 3380 763e d156 d6bd b5fa d2be 2948 cabd
00000030: a153 a8be 2546 fc3e 645d ae3e 34e0 163e
00000040: 1d40 c53d c2ab bfbc 30cc 863e 6e84 84be
00000050: 3349 fa3b 7b40 7ebe 4c45 df3d 025c f9bd
00000060: f7ea 4e3d 6b95 e0bd 7cae 8e3e b0b6 95be
00000070: 20c5 c43d 0922 f7bd 8b45 923e c8ac bd3d

model.2.bias f4 [4]
0.2530791 0.118060365 -0.36631942 -0.28332612
00000000: 9593 813e a2c9 f13d 388e bbbe 1f10 91be

model.4.weight f4 [3, 4]
-0.97507465 2.3208838 0.113802016 0.8365529 -0.2631074 2.3694246 0.20539586 2.0882668
0.13818023 -0.014165075 0.27941263 -0.08336794
00000000: 7e9e 79bf 5c89 1440 0811 e93d 5528 563f
00000010: 03b6 86be a7a4 1740 4b53 523e 2aa6 0540
00000020: 1e7f 0d3e a114 68bc 2c0f 8f3e cfbc aabd

model.4.bias f4 [3]
1.9832236 0.6794424 0.015008296
00000000: 45da fd3f f0ef 2d3f 5be5 753c

exp_avg f4 [8, 4]
-0.03248667 -0.0036621455 -0.04966538 -0.080822274 -0.082811885 0.0022143524 -0.22207567 -0.20443934
0.039528105 0.03740176 0.010070352 -0.05489808 0.0075212317 -0.0022735063 -0.007047274 -0.012196955
0.03435488 0.029782064 0.0089946175 -0.04285715 -0.021113364 0.0032785663 -0.13696595 -0.23875141
0.028029392 -0.01848534 0.08884661 0.13651511 -0.055903316 -0.015770981 -0.05832709 -0.08532432
00000000: be10 05bd 9b00 70bb ed6d 4bbd 2686 a5bd
00000010: 4799 a9bd ab1e 113b ce67 63be 8c58 51be
00000020: 39e8 213d 9732 193d 1efe 243c cfdc 60bd
00000030: aa74 f63b 1bff 14bb d2ec e6bb bdd5 47bc
00000040: b4b7 0c3d 84f9 f33c 295e 133c fb8a 2fbd
00000050: eff5 acbc 37dd 563b cd40 0cbe 407b 74be
00000060: e59d e53c 916e 97bc 36f5 b53d 9eca 0b3e
00000070: e0fa 64bd 2532 81bc 63e8 6ebd 84be aebd

exp_avg_sq f4 [8, 4]
0.067171685 0.032652546 0.08629273 0.061322592 0.046220716 0.033348612 0.07555748 0.069019765
0.2660546 0.20952588 0.17689574 0.13414657 0.011119778 0.013435483 0.014625543 0.0083610965
0.27295378 0.28652227 0.3704883 0.34405607 0.2155539 0.29219267 0.39739484 0.40309268
0.051235244 0.066507086 0.07882482 0.08156055 0.05817957 0.10317913 0.0713486 0.10906988
00000000: 4f91 893d adbe 053d 3eba b03d 662d 7b3d
00000010: ef51 3d3d 8e98 083d e1bd 9a3d 3c5a 8d3d
00000020: 4f38 883e f48d 563e 2824 353e b85d 093e
00000030: bb2f 363c 8020 5c3c f99f 6f3c fbfc 083c
00000040: 99c0 8b3e 0cb3 923e a4b0 bd3e 1e28 b03e
00000050: 29ba 5c3e 479a 953e 5677 cb3e 2a62 ce3e
00000060: 0cdc 513d de34 883d e86e a13d 3809 a73d
00000070: b34d 6e3d 944f d33d 371f 923d 0760 df3d

exp_avg f4 [8]
0.023773814 0.14156438 0.012627585 -0.002361781 0.004278004 0.06759127 -0.058848903 0.033089705
00000000: 4dc1 c23c 41f6 103e eee3 4e3c 1cc8 1abb
00000010: 802e 8c3b 4b6d 8a3d 8c0b 71bd 1289 073d

exp_avg_sq f4 [8]
0.060839877 0.052855942 0.16313298 0.009361367 0.27964285 0.30135328 0.06173202 0.064481914
00000000: 3c33 793d 797f 583d 550c 273e 6b60 193c
00000010: 592d 8f3e fa4a 9a3e b7da 7c3d 180f 843d

exp_avg f4 [4, 8]
-0.18462446 -0.3076047 -0.00037602586 0.012413221 -0.026355807 -0.29637244 -0.28025272 -0.35825613
-0.098993115 -0.093582876 0.01935046 0.01858175 0.0014348888 -0.0051904027 0.0039446135 0.030192899
7.747042e-19 4.0238087e-19 2.0865135e-19 4.03255e-20 2.7158676e-19 5.830988e-21 0.0 0.0
6e-45 1.0749312e-29 2.771495e-06 0.00026135432 -2.9974863e-21 0.0020781988 0.004281841 0.004993046
00000000: 320e 3dbe 5d7e 9dbe 5625 c5b9 d360 4b3c
00000010: 22e8 d7bc 21be 97be 497d 8fbe 596d b7be
00000020: e7bc cabd 61a8 bfbd db84 9e3c c138 983c
00000030: e112 bc3a 4114 aabb d141 813b 1957 f73c
00000040: ffa6 6421 1486 ed20 0055 7620 8a6e 3e1f
00000050: 0851 a020 db49 dc1d 0000 0000 0000 0000
00000060: 0400 0000 9e05 5a0f ecfd 3936 6206 8939
00000070: d17b 629d 6432 083b b04e 8c3b b59c a33b

exp_avg_sq f4 [4, 8]
2.3677392 0.7085283 0.05744599 0.30661625 0.23420438 5.3200903 1.9640589 4.2200236
0.47186852 0.1438281 0.028402403 0.060082093 0.039949823 0.16666135 0.052725043 0.10764946
0.018251216 0.003932443 0.0018234958 0.000111758774 0.0026160623 7.007882e-06 0.0 0.0
1.4381761e-05 2.1885124e-05 0.00025212497 0.00030940174 2.9839859e-05 0.14064693 0.42823097 1.182147
00000000: 0a89 1740 1c62 353f 7d4c 6b3d cefc 9c3e
00000010: 46d3 6f3e 2e3e aa40 4866 fb3f 6f0a 8740
00000020: c098 f13e ac47 133e 28ac e83c a418 763d
00000030: 6da2 233d 46a9 2a3e 37f6 573d 5277 dc3d
00000040: 9383 953c b9db 803b 5e02 ef3a 0960 ea38
00000050: 3e72 2b3b 3f25 eb36 0000 0000 0000 0000
00000060: 3149 7137 f295 b737 a42f 8439 3337 a239
00000070: 9c50 fa37 c005 103e 1741 db3e 9850 973f

exp_avg f4 [4]
-0.40818557 -0.07030352 4.0204346e-19 0.0045225895
00000000: b3fd d0be 4bfb 8fbd 1753 ed20 3b32 943b

exp_avg_sq f4 [4]
5.756711 0.34816805 0.0047838623 0.4101298
00000000: fa36 b840 1543 b23e f2c1 9c3b 88fc d13e

exp_avg f4 [3, 4]
0.003492334 -0.017827619 8.767549e-22 -8.394044e-06 0.0066144015 -0.0077064466 -1.9599243e-21 -1.620835e-06
0.09194168 -2.081052 3.1520215e-20 -0.0013399165
00000000: a4df 643b 3a0b 92bc d07d 841c 25d4 0cb7
00000010: 9fbd d83b 5c86 fcbb 7316 149d 778b d9b5
00000020: eb4b bc3d f52f 05c0 9ad9 141f 23a0 afba

exp_avg_sq f4 [3, 4]
0.00070051476 0.00197995 1.3107506e-06 3.821787e-06 0.0034252256 0.0029265978 8.979578e-06 4.475973e-06
3.7540703 202.9038 0.0004751346 0.6713848
00000000: c0a2 373a 0cc2 013b 0ced af35 e63c 8036
00000010: c079 603b 2acc 3f3b fea6 1637 5130 9636
00000020: b042 7040 5fe7 4a43 7d1b f939 e0df 2b3f

exp_avg f4 [3]
-0.018539058 -0.0028292707 -1.2691075
00000000: 39df 97bc 496b 39bb 1d72 a2bf

exp_avg_sq f4 [3]
0.011784006 0.04647302 387.1987
00000000: b411 413c 7e5a 3e3d 6f99 c143
