MLP/lightning_logs/version_3/checkpoints/epoch=11-step=33744.ckpt (torch, 11671 bytes, 15 tensors)

model.0.weight f4 [8, 4]
-0.11916159 0.73397267 -0.31156608 0.30363676 -0.5740385 0.6201206 -0.067169994 -0.13875102
0.41761905 0.22365601 0.41056794 -0.010323248 -0.07968976 -0.06321101 -0.16649531 -0.53678334
0.7103891 -0.65682113 -0.24196427 0.22626173 -0.6132192 0.49475145 -0.11350633 -0.14082386
-1.1483753 0.3811482 -0.15683636 0.16674206 -0.21728677 -0.58484286 0.49639058 -0.48588845
00000000: fe0a f4bd a2e5 3b3f 9785 9fbe 4776 9b3e
00000010: 30f4 12bf 39c0 1e3f 6c90 89bd bf14 0ebe
00000020: 2ad2 d53e 1506 653e f635 d23e d722 29bc
00000030: 6334 a3bd c674 81bd bf7d 2abe a26a 09bf
00000040: 0fdc 353f 6e25 28bf 7bc5 77be 28b1 673e
00000050: effb 1cbf 1050 fd3e 0276 e8bd 2134 10be
00000060: f6fd 92bf db25 c33e b699 20be 6ebe 2a3e
00000070: 6c80 5ebe 43b8 15bf e826 fe3e 5fc6 f8be

model.0.bias f4 [8]
1.0104895 0.5931592 -0.20876853 -0.025012204 -0.0209121 0.86486673 0.57045174 0.27489993
00000000: b857 813f 48d9 173f 6bc7 55be 65e6 ccbc
00000010: da4f abbc e867 5d3f 2009 123f afbf 8c3e

model.2.weight f4 [4, 8]
-0.08545093 -0.25317752 0.009513414 0.11006651 0.087558016 -0.30653417 0.050133757 -0.13581577
0.54436076 0.5078255 -0.20153742 0.17425206 -0.8322149 0.8048282 0.7005111 0.27545518
0.04831331 -0.037886158 0.21319206 -0.28293824 -0.041240595 -0.30481493 0.10901889 -0.12175752
0.38639566 0.6249685 0.3979142 0.031649522 -0.82004154 0.26871884 0.87295943 0.19417119
00000000: e600 afbd 7ca0 81be 27de 1b3c 8d6a e13d
00000010: 9e51 b33d 0cf2 9cbe 0e59 4d3d 4a13 0bbe
00000020: 3a5b 0b3f da00 023f d35f 4ebe 226f 323e
00000030: 090c 55bf 3909 4e3f b254 333f 7608 8d3e
00000040: 2de4 453d 842e 1bbd 054f 5a3e 48dd 90be
00000050: e6eb 28bd b410 9cbe 4c45 df3d 025c f9bd
00000060: a7d5 c53e f0fd 1f3f 69bb cb3e eea2 013d
00000070: 3eee 51bf 8495 893e 457a 5f3f d0d4 463e

model.2.bias f4 [4]
0.074062206 0.19804677 -0.41418275 0.15167384
00000000: edad 973d c6cc 4a3e c30f d4be 6350 1b3e

model.4.weight f4 [1, 4]
-0.19052823 0.90643185 0.11559299 1.0496837
00000000: d519 43be eb0b 683f 04bc ec3d 095c 863f

exp_avg f4 [8, 4]
0.005992232 0.05799553 0.010164686 -0.07342939 0.010708728 0.07770437 0.0120872045 -0.085597105
-0.018232197 -0.001827003 0.006201907 -0.019332822 0.021317692 0.025019841 0.007486118 -0.013448725
-0.022514047 -0.1044505 0.15541425 0.10140661 0.039887715 0.12065671 -0.04301447 -0.097082905
0.12150059 0.22086273 0.05471946 -0.05605064 0.034257635 0.058077686 0.014855965 -0.023218598
00000000: 7c5a c43b b98c 6d3d c889 263c 2662 96bd
00000010: a973 2f3c 7823 9f3d 6909 463c 894d afbd
00000020: b05b 95bc 0c78 efba 5e39 cb3b de5f 9ebc
00000030: 71a2 ae3c 69f6 cc3c 1c4e f53b 0b58 5cbc
00000040: 616f b8bc 25ea d5bd ea24 1f3e 45ae cf3d
00000050: 4d61 233d dd1a f73d f12f 30bd 67d3 c6bd
00000060: 4dd5 f83d d729 623e 8321 603d 5b95 65bd
00000070: bc51 0c3d dee2 6d3d 6f66 733c ee34 bebc

exp_avg_sq f4 [8, 4]
0.13778915 0.079581186 0.08026259 0.08428291 0.21299003 0.13696815 0.12739505 0.12451036
0.007943808 0.0031341696 0.0036671346 0.004039045 0.0019053699 0.0016753457 0.0014145264 0.0013560173
0.39973453 0.25866672 0.20921567 0.2240579 0.18279602 0.12509911 0.11403728 0.11570438
0.06512926 0.1612345 0.10167751 0.10141991 0.009211936 0.014276226 0.0100039365 0.008995067
00000000: 9918 0d3e 76fb a23d b660 a43d 859c ac3d
00000010: 0f1a 5a3e 6141 0c3e d973 023e 4aff fe3d
00000020: bf26 023c a466 4d3b 4f54 703b f759 843b
00000030: 9bbd f93a 4697 db3a a167 b93a 64bc b13a
00000040: 01aa cc3e f76f 843e a23c 563e 6f6f 653e
00000050: e12e 3b3e fb19 003e 618c e93d 6bf6 ec3d
00000060: 7d62 853d a81a 253e 4c3c d03d 3eb5 cf3d
00000070: a9ed 163c d5e6 693c 8de7 233c 0c60 133c

exp_avg f4 [8]
-0.004667074 -0.009364727 -0.0020307307 0.0055656605 0.14017498 -0.041908026 -0.02431075 -0.0155537445
00000000: 41ee 98bb 836e 19bc 0216 05bb 2560 b63b
00000010: 088a 0f3e c0a7 2bbd 5727 c7bc 22d5 7ebc

exp_avg_sq f4 [8]
0.07932645 0.12714875 0.003848352 0.0013642935 0.21533282 0.11104411 0.099773146 0.008957563
00000000: e875 a23d 4833 023e a234 7c3b 18d2 b23a
00000010: 3580 5c3e 186b e33d dd55 cc3d bec2 123c

exp_avg f4 [4, 8]
6e-45 6e-45 6e-45 6e-45 6e-45 6e-45 6e-45 6e-45
0.012109802 0.038827177 -0.018494612 0.012841824 -0.019989545 0.01600546 -0.050245065 -0.053651936
6e-45 6e-45 6e-45 6e-45 6e-45 6e-45 0.0 0.0
0.013999386 0.044941187 -0.021420922 0.014863315 -0.023148544 0.01851252 -0.058187507 -0.062138837
00000000: 0400 0000 0400 0000 0400 0000 0400 0000
00000010: 0400 0000 0400 0000 0400 0000 0400 0000
00000020: 3168 463c 3f09 1f3d 0382 97bc 8466 523c
00000030: 1dc1 a3bc e21d 833c c5cd 4dbd 22c2 5bbd
00000040: 0400 0000 0400 0000 0400 0000 0400 0000
00000050: 0400 0000 0400 0000 0000 0000 0000 0000
00000060: ae5d 653c 4014 383d ee7a afbc 4385 733c
00000070: 04a2 bdbc 91a7 973c 0656 6ebd 4b85 7ebd

exp_avg_sq f4 [4, 8]
1.05817866e-17 8.751563e-19 8.569744e-19 3.3741183e-18 1.6245795e-18 1.4918438e-18 9.701779e-19 1.2937376e-18
0.18242732 0.017078672 0.031166168 0.008383722 0.027057089 0.035373855 0.039832044 0.049969092
6.252177e-09 6.5038663e-19 4.130424e-09 2.1169718e-20 3.9448006e-10 2.2986417e-11 0.0 0.0
0.24419288 0.022860985 0.041712996 0.011222308 0.03622258 0.04734928 0.053318676 0.06688926
00000000: 1333 4323 7826 8121 28ef 7c21 4bf7 7822
00000010: e1be ef21 4428 dc21 492c 8f21 06ec be21
00000020: 3ace 3a3e 92e8 8b3c 3150 ff3c e15b 093c
00000030: d4a6 dd3c 2de4 103d ed26 233d 64ac 4c3d
00000040: bbd2 d631 d3f5 3f21 98eb 8d31 3df1 c71e
00000050: 22de d82f cf30 ca2d 0000 0000 0000 0000
00000060: b30d 7a3e f646 bb3c 3fdb 2a3d c5dd 373c
00000070: 215e 143d 52f1 413d af64 5a3d 3dfd 883d

exp_avg f4 [4]
6e-45 -0.03771787 6e-45 -0.043694127
00000000: 0400 0000 0e7e 1abd 0400 0000 9df8 32bd

exp_avg_sq f4 [4]
6.2823896e-18 0.08854315 2.825993e-09 0.11851821
00000000: 7ec7 e722 1c56 b53d 6533 4231 adb9 f23d

exp_avg f4 [1, 4]
-6e-45 0.005196894 6e-45 -0.018642757
00000000: 0400 0080 b54a aa3b 0400 0000 b2b8 98bc

exp_avg_sq f4 [1, 4]
1.4819032e-17 0.2963044 2.8395068e-12 0.20267764
00000000: 73ae 8823 36b5 973e 02d0 472c ba8a 4f3e
